titanic/model.pth (torch, 2527 bytes, 4 tensors)

linear_relu_stack.0.weight f4 [20, 7]
000000 23 cd 00 3e 34 6b 8c 3e da 84 35 be 1d 0b 24 be
       0.12578253 0.2742554 -0.1772646 -0.16019864
000010 02 6e 24 be 44 3e 0f be 32 42 95 3e c8 0c 98 be
       -0.1605759 -0.13988596 0.29152066 -0.2969725
000020 30 9b bd 3f ae bb 93 be ab 31 27 40 0e d1 ad bf
       1.4812984 -0.28854126 2.6124065 -1.3579423
000030 d9 5f 89 be 0b 65 26 3f 00 c7 a2 3e f5 63 2a be
       -0.26830938 0.6499793 0.3179245 -0.16639693
000040 c5 c6 8d be a8 f3 b4 3e d0 f1 14 3b fb d0 f2 bd
       -0.27690712 0.35342145 0.002272714 -0.11856266
000050 ec be 92 3e d6 46 5b be 2e 9b 06 c0 f7 88 ac 3c
       0.28661287 -0.2141374 -2.1032214 0.021061404
000060 22 72 ee 3e 39 c4 2a 3d c8 bb 59 be 6d ae ee 3c
       0.4657145 0.04169104 -0.21263039 0.029135907
000070 6e f1 93 bd f2 c8 ff 40 a5 63 b3 bf aa c0 69 c0
       -0.072237834 7.9932795 -1.4014784 -3.6523843
000080 fd f4 94 40 e2 09 24 be d9 28 71 c0 cc 31 2d c0
       4.654906 -0.16019395 -3.7681181 -2.7061644
000090 6d c3 c7 c1 58 45 ae 3c cf 04 11 bf 7b be 9d bf
       -24.970423 0.0212733 -0.5664796 -1.2323755
0000a0 59 cd 0f 3d 8b f8 e4 3d c2 64 f1 be 4a ab 1f 3e
       0.035107944 0.11180218 -0.47147185 0.15592685
0000b0 9c cd 36 bd f5 d8 f8 bd b4 10 b1 be 7e 1e e8 be
       -0.044629678 -0.12150756 -0.34583056 -0.45335764
0000c0 be d4 2e 3b e0 7a be bd 7a 86 93 3e e4 ab 4e be
       0.0026677097 -0.0930078 0.28813535 -0.20182759
0000d0 7e a3 3f 3e 98 f3 99 be 6b ad 81 be 55 a8 27 be
       0.18714711 -0.3006866 -0.2532762 -0.16372807
0000e0 9c b9 22 be 50 30 ac 3f e4 24 83 bc b1 2c 4c be
       -0.15891117 1.3452244 -0.016008802 -0.19938923
0000f0 09 e3 08 bf 5c 06 75 be 22 b6 d2 bd 61 cb 95 bb
       -0.5347143 -0.23928207 -0.10288645 -0.004571364
000100 eb 56 26 be 1b f7 ea be 59 6c 4d 3e 26 ac c1 3d
       -0.16244094 -0.45891652 0.20060863 0.09456663
000110 48 0c 22 bd d5 0a 25 3e 8d 35 f2 3c 9e 12 7f 3f
       -0.039562494 0.16117413 0.02956655 0.9963778
000120 4e f9 91 be bc 42 76 3f fa a4 5c bf ac e8 0f be
       -0.28510517 0.9619558 -0.86189234 -0.14053601
000130 e4 04 a9 be b6 58 81 bb c7 80 9d bc 3a 15 c5 bd
       -0.33011544 -0.0039473427 -0.019226445 -0.09623189
000140 db 2c a0 be 8a 7a 86 3d 18 3d bc be 37 e6 38 3e
       -0.31284222 0.06566341 -0.3676536 0.1805657
000150 a8 21 00 be cb ce 36 3e 87 b7 a6 be 56 2f 1b 3e
       -0.12512839 0.17852323 -0.32561895 0.15154776
000160 b5 f5 0f be 4b 4f ff bd 55 35 76 be a2 fc dc 3d
       -0.14058574 -0.12466296 -0.24043782 0.107903734
000170 e1 45 87 3e 2c 94 ad bd 8d 23 28 3e a5 ba 81 be
       0.264205 -0.08475527 0.16419812 -0.2533771
000180 16 5a c1 be e1 3b 8d be 4f 67 f7 3f ce 86 80 40
       -0.37764043 -0.27584746 1.9328402 4.0164557
000190 0b fc f9 3d 91 59 1e 40 28 f6 32 bf 70 fe 3f be
       0.122062765 2.4742167 -0.69906855 -0.18749404
0001a0 5d c2 70 3f d7 10 89 be 7e bb 3a 3e d4 ed ad be
       0.94046575 -0.2677066 0.18235585 -0.3397051
0001b0 2b 78 5a 3e a2 4f 87 be 1e 65 60 bd d3 e1 90 be
       0.21334903 -0.26427943 -0.054783933 -0.2829729
0001c0 f9 bc aa be 7a be 88 be 8a 2f af bd a7 09 d8 3b
       -0.333473 -0.26707822 -0.08553989 0.0065929475
0001d0 19 a9 ad 3e 24 94 6e be 0a 9c 21 be 93 0a 61 be
       0.33918074 -0.23298699 -0.1578218 -0.2197669
0001e0 b3 c4 37 be 1b 0d 91 be c1 fb be be 81 45 cf be
       -0.17946129 -0.2833031 -0.37301448 -0.40482715
0001f0 1a b1 84 39 24 43 50 3e 7e 7b f9 bc 6c 5e 93 3e
       0.00025308953 0.20338112 -0.030454393 0.28782976
000200 33 ff ac be 3f 1b 91 3d 6b 36 66 3e 08 29 33 be
       -0.33788452 0.07085275 0.22481696 -0.17496121
000210 61 a4 3e 3d 36 58 1f bf 57 98 52 be f3 7f fa bc
       0.046543483 -0.62243974 -0.20565926 -0.030578589
000220 10 8f 92 be 9a 35 5f 3e 1c c9 20 bf 39 34 dd 3d
       -0.28624773 0.21797791 -0.6280687 0.10800976

linear_relu_stack.0.bias f4 [20]
000000 e6 3a 96 be 61 0f 0e c0 71 78 ba bc 67 d0 1e 3d
       -0.2934181 -2.2196887 -0.022762509 0.038772967
000010 ce cc 95 40 85 45 36 41 8f 31 5f be 81 bd 93 be
       4.6812506 11.391973 -0.21796249 -0.28855518
000020 61 24 0e bf 62 6b f1 be 9d ad 3b bf 46 2f a8 3e
       -0.5552426 -0.4715224 -0.7331179 0.32848567
000030 ac e9 87 3e 06 cb bb be f6 f2 ed c0 98 71 f4 bc
       0.26545465 -0.36678332 -7.4359083 -0.029839322
000040 ad f1 f6 bd c6 23 2a 3e 74 56 ab 3e e2 ce 2c be
       -0.12057815 0.16615209 0.33464396 -0.16875795

linear_relu_stack.2.weight f4 [2, 20]
000000 27 2a 62 be 7c f5 d6 bd 19 c8 1b be dc df 63 bd
       -0.22086392 -0.10496041 -0.1521305 -0.05563341
000010 4d 8a 4e bf d6 9f 73 be a1 c1 ac bc bf a6 14 be
       -0.8067978 -0.23791441 -0.021088423 -0.14516734
000020 ae 35 39 3d ce c8 20 3e a3 af c7 bd 54 d5 2d be
       0.04521721 0.15701601 -0.09750297 -0.1697591
000030 ab bd 2c be 98 6d 3e 3e 7f 98 b7 3d 0e e4 b9 3c
       -0.16869228 0.18596494 0.08964633 0.022691753
000040 77 cd 10 3e 3a d2 e1 bd 28 09 21 be bc 25 43 bd
       0.14140879 -0.11026426 -0.15726149 -0.04764341
000050 03 43 c7 bd 33 01 e5 bc 87 fc 6f bd 9c 98 bf bd
       -0.09729578 -0.027954673 -0.05859044 -0.0935528
000060 45 42 42 3f ae a3 60 3e 8e 44 aa bd 94 82 8c bd
       0.7588237 0.21937439 -0.08313857 -0.06860843
000070 5f b4 27 3c 5f a1 34 3e fb 7d 17 be a7 fa 32 3d
       0.010235875 0.17639683 -0.14794151 0.043696072
000080 4e 32 43 bc 8d 24 a4 bd 0c 39 57 be 1e 57 e9 3d
       -0.011913849 -0.08014784 -0.21017855 0.113935694
000090 73 35 e9 bb ce b9 a1 bd 7a 1b 44 be 17 84 a4 3d
       -0.0071169673 -0.078967676 -0.19151106 0.08033007

linear_relu_stack.2.bias f4 [2]
000000 2d e9 9e 3e 4c a3 f4 bd
       0.31037274 -0.11945209
